…
        return self.final_activation(outputs)

```

## Generator

Choose one of the following NN Models


```python
# DEEPER DECODER
try:
    del generator_2d
    print('generator_2d deleted')
except:
    pass
generator_2d=Decoder_2d_deep(3).to(device)
init_weights(generator_2d, 'normal', scaling=.02)
print(generator_2d)
```


```python
# SHALLOW DECODER
try:
    del generator_2d
    print('generator_2d deleted')
except:
    pass
generator_2d=Decoder(3,norm=False).to(device)
init_weights(generator_2d, 'normal', scaling=.02)
print(generator_2d)
```

    generator_2d deleted
    initialize network with normal
    Decoder(
      (conv1): Conv2d(3, 32, kernel_size=(7, 7), stride=(1, 1), padding=(3, 3))
      (relu1): LeakyReLU(negative_slope=0.2, inplace=True)
      (conv2): Conv2d(32, 64, kernel_size=(7, 7), stride=(1, 1), padding=(3, 3))
      (relu2): LeakyReLU(negative_slope=0.2, inplace=True)
      (conv3): Conv2d(64, 64, kernel_size=(7, 7), stride=(1, 1), padding=(3, 3))
      (relu3): LeakyReLU(negative_slope=0.2, inplace=True)
      (conv4): Conv2d(64, 1, kernel_size=(7, 7), stride=(1, 1), padding=(3, 3))
      (activation): ReLU()
    )



```python
# RESNET
try:
    del generator_2d
    print('generator_2d deleted')
except:
    pass
generator_2d=GeneratorResNet(3,12,1).to(device)
init_weights(generator_2d, 'normal', scaling=0.01)
print(generator_2d)
```


```python
#UNET

input_channels=3
output_channels=1

try:
    del generator_2d
    print('generator deleted')
except:
    pass


generator_2d = UNet(input_channels, output_channels,False).to(device)
init_weights(generator_2d, 'normal', scaling=.02)
print(generator_2d)
```

    generator deleted
    initialize network with normal
    UNet(
      (encoder): Encoder(
        (block1): EncoderBlock(
          (conv_block): Conv2dBlock(
            (conv1): Conv2d(3, 64, kernel_size=(3, 3), stride=(1, 1), padding=(1, 1))
            (conv2): Conv2d(64, 64, kernel_size=(3, 3), stride=(1, 1), padding=(1, 1))
            (activation): ReLU()
          )
          (maxpool): MaxPool2d(kernel_size=(2, 2), stride=(2, 2), padding=0, dilation=1, ceil_mode=False)
          (dropout): Dropout2d(p=0.3, inplace=False)
        )
        (block2): EncoderBlock(
          (conv_block): Conv2dBlock(
            (conv1): Conv2d(64, 128, kernel_size=(3, 3), stride=(1, 1), padding=(1, 1))
            (conv2): Conv2d(128, 128, kernel_size=(3, 3), stride=(1, 1), padding=(1, 1))
            (activation): ReLU()
          )
          (maxpool): MaxPool2d(kernel_size=(2, 2), stride=(2, 2), padding=0, dilation=1, ceil_mode=False)
          (dropout): Dropout2d(p=0.3, inplace=False)
        )
        (block3): EncoderBlock(
          (conv_block): Conv2dBlock(
            (conv1): Conv2d(128, 256, kernel_size=(3, 3), stride=(1, 1), padding=(1, 1))
            (conv2): Conv2d(256, 256, kernel_size=(3, 3), stride=(1, 1), padding=(1, 1))
            (activation): ReLU()
          )
          (maxpool): MaxPool2d(kernel_size=(2, 2), stride=(2, 2), padding=0, dilation=1, ceil_mode=False)
          (dropout): Dropout2d(p=0.3, inplace=False)
        )
        (block4): EncoderBlock(
          (conv_block): Conv2dBlock(
            (conv1): Conv2d(256, 512, kernel_size=(3, 3), stride=(1, 1), padding=(1, 1))
            (conv2): Conv2d(512, 512, kernel_size=(3, 3), stride=(1, 1), padding=(1, 1))
            (activation): ReLU()
          )
          (maxpool): MaxPool2d(kernel_size=(2, 2), stride=(2, 2), padding=0, dilation=1, ceil_mode=False)
          (dropout): Dropout2d(p=0.3, inplace=False)
        )
      )
      (bottleneck): Bottleneck(
        (conv_block): Conv2dBlock(
          (conv1): Conv2d(512, 1024, kernel_size=(3, 3), stride=(1, 1), padding=(1, 1))
          (conv2): Conv2d(1024, 1024, kernel_size=(3, 3), stride=(1, 1), padding=(1, 1))
          (activation): ReLU()
        )
      )
      (decoder): Decoder(
        (block6): DecoderBlock(
          (deconv): ConvTranspose2d(1024, 512, kernel_size=(3, 3), stride=(2, 2), padding=(1, 1), output_padding=(1, 1))
          (dropout): Dropout2d(p=0.3, inplace=False)
          (conv_block): Conv2dBlock(
            (conv1): Conv2d(1024, 512, kernel_size=(3, 3), stride=(1, 1), padding=(1, 1))
            (conv2): Conv2d(512, 512, kernel_size=(3, 3), stride=(1, 1), padding=(1, 1))
            (activation): ReLU()
          )
        )
        (block7): DecoderBlock(
          (deconv): ConvTranspose2d(512, 256, kernel_size=(3, 3), stride=(2, 2), padding=(1, 1), output_padding=(1, 1))
          (dropout): Dropout2d(p=0.3, inplace=False)
          (conv_block): Conv2dBlock(
            (conv1): Conv2d(512, 256, kernel_size=(3, 3), stride=(1, 1), padding=(1, 1))
            (conv2): Conv2d(256, 256, kernel_size=(3, 3), stride=(1, 1), padding=(1, 1))
            (activation): ReLU()
          )
        )
        (block8): DecoderBlock(
          (deconv): ConvTranspose2d(256, 128, kernel_size=(3, 3), stride=(2, 2), padding=(1, 1), output_padding=(1, 1))
          (dropout): Dropout2d(p=0.3, inplace=False)
          (conv_block): Conv2dBlock(
            (conv1): Conv2d(256, 128, kernel_size=(3, 3), stride=(1, 1), padding=(1, 1))
            (conv2): Conv2d(128, 128, kernel_size=(3, 3), stride=(1, 1), padding=(1, 1))
            (activation): ReLU()
          )
        )
        (block9): DecoderBlock(
          (deconv): ConvTranspose2d(128, 64, kernel_size=(3, 3), stride=(2, 2), padding=(1, 1), output_padding=(1, 1))
          (dropout): Dropout2d(p=0.3, inplace=False)
          (conv_block): Conv2dBlock(
            (conv1): Conv2d(128, 64, kernel_size=(3, 3), stride=(1, 1), padding=(1, 1))
            (conv2): Conv2d(64, 64, kernel_size=(3, 3), stride=(1, 1), padding=(1, 1))
            (activation): ReLU()
          )
        )
        (final_conv): Conv2d(64, 1, kernel_size=(1, 1), stride=(1, 1))
      )
      (final_activation): ReLU()
    )



```python
'''#General CNN
hidden_sizes=[64,128,256] #Numero di kernel per hidden layer
kernels=[3,3,3,3] #dimensione dei kernel per ogni layer (compreso l'output)
bn=[True,True,True] #True -> Batch Normalization nel hidden layer corrispondente
drop=[0.3,0.3,0.3] # Dropout with p[i]=drop[i]
generator=make_conv_net(hidden_sizes, kernels, 3, 1,bn,drop).to(device)
…
            generated=normalize_(generated,1)
    return generated
```


```python
# Example usage
input_channels = 3  # adjust based on your input data
output_channels = 1  # adjust based on your output data

try:
    del generator_unet
    print('generator deleted')
except:
    pass


generator_unet = UNet(input_channels, output_channels).to(device)
init_weights(generator_unet, 'normal', scaling=.01)
print(generator_unet)
```

    generator deleted
    initialize network with normal
    UNet(
      (encoder): Encoder(
        (block1): EncoderBlock(
          (conv_block): Conv2dBlock(
            (conv1): Conv2d(3, 64, kernel_size=(3, 3), stride=(1, 1), padding=(1, 1))
            (conv2): Conv2d(64, 64, kernel_size=(3, 3), stride=(1, 1), padding=(1, 1))
            (activation): ReLU()
          )
          (maxpool): MaxPool2d(kernel_size=(2, 2), stride=(2, 2), padding=0, dilation=1, ceil_mode=False)
          (dropout): Dropout2d(p=0.3, inplace=False)
        )
        (block2): EncoderBlock(
          (conv_block): Conv2dBlock(
            (conv1): Conv2d(64, 128, kernel_size=(3, 3), stride=(1, 1), padding=(1, 1))
            (conv2): Conv2d(128, 128, kernel_size=(3, 3), stride=(1, 1), padding=(1, 1))
            (activation): ReLU()
          )
          (maxpool): MaxPool2d(kernel_size=(2, 2), stride=(2, 2), padding=0, dilation=1, ceil_mode=False)
          (dropout): Dropout2d(p=0.3, inplace=False)
        )
        (block3): EncoderBlock(
          (conv_block): Conv2dBlock(
            (conv1): Conv2d(128, 256, kernel_size=(3, 3), stride=(1, 1), padding=(1, 1))
            (conv2): Conv2d(256, 256, kernel_size=(3, 3), stride=(1, 1), padding=(1, 1))
            (activation): ReLU()
          )
          (maxpool): MaxPool2d(kernel_size=(2, 2), stride=(2, 2), padding=0, dilation=1, ceil_mode=False)
          (dropout): Dropout2d(p=0.3, inplace=False)
        )
        (block4): EncoderBlock(
          (conv_block): Conv2dBlock(
            (conv1): Conv2d(256, 512, kernel_size=(3, 3), stride=(1, 1), padding=(1, 1))
            (conv2): Conv2d(512, 512, kernel_size=(3, 3), stride=(1, 1), padding=(1, 1))
            (activation): ReLU()
          )
          (maxpool): MaxPool2d(kernel_size=(2, 2), stride=(2, 2), padding=0, dilation=1, ceil_mode=False)
          (dropout): Dropout2d(p=0.3, inplace=False)
        )
      )
      (bottleneck): Bottleneck(
        (conv_block): Conv2dBlock(
          (conv1): Conv2d(512, 1024, kernel_size=(3, 3), stride=(1, 1), padding=(1, 1))
          (conv2): Conv2d(1024, 1024, kernel_size=(3, 3), stride=(1, 1), padding=(1, 1))
          (activation): ReLU()
        )
      )
      (decoder): Decoder(
        (block6): DecoderBlock(
          (deconv): ConvTranspose2d(1024, 512, kernel_size=(3, 3), stride=(2, 2), padding=(1, 1), output_padding=(1, 1))
          (dropout): Dropout2d(p=0.3, inplace=False)
          (conv_block): Conv2dBlock(
            (conv1): Conv2d(1024, 512, kernel_size=(3, 3), stride=(1, 1), padding=(1, 1))
            (conv2): Conv2d(512, 512, kernel_size=(3, 3), stride=(1, 1), padding=(1, 1))
            (activation): ReLU()
          )
        )
        (block7): DecoderBlock(
          (deconv): ConvTranspose2d(512, 256, kernel_size=(3, 3), stride=(2, 2), padding=(1, 1), output_padding=(1, 1))
          (dropout): Dropout2d(p=0.3, inplace=False)
          (conv_block): Conv2dBlock(
            (conv1): Conv2d(512, 256, kernel_size=(3, 3), stride=(1, 1), padding=(1, 1))
            (conv2): Conv2d(256, 256, kernel_size=(3, 3), stride=(1, 1), padding=(1, 1))
            (activation): ReLU()
          )
        )
        (block8): DecoderBlock(
          (deconv): ConvTranspose2d(256, 128, kernel_size=(3, 3), stride=(2, 2), padding=(1, 1), output_padding=(1, 1))
          (dropout): Dropout2d(p=0.3, inplace=False)
          (conv_block): Conv2dBlock(
            (conv1): Conv2d(256, 128, kernel_size=(3, 3), stride=(1, 1), padding=(1, 1))
            (conv2): Conv2d(128, 128, kernel_size=(3, 3), stride=(1, 1), padding=(1, 1))
            (activation): ReLU()
          )
        )
        (block9): DecoderBlock(
          (deconv): ConvTranspose2d(128, 64, kernel_size=(3, 3), stride=(2, 2), padding=(1, 1), output_padding=(1, 1))
          (dropout): Dropout2d(p=0.3, inplace=False)
          (conv_block): Conv2dBlock(
            (conv1): Conv2d(128, 64, kernel_size=(3, 3), stride=(1, 1), padding=(1, 1))
            (conv2): Conv2d(64, 64, kernel_size=(3, 3), stride=(1, 1), padding=(1, 1))
            (activation): ReLU()
          )
        )
        (final_conv): Conv2d(64, 1, kernel_size=(1, 1), stride=(1, 1))
      )
      (sigmoid): Sigmoid()
    )



```python
for batch in(tqdm(test_dataloader)):
    generated=generate_data(generator_unet,batch,normalize=False)
    break
generated[1,0].shape
#batch=transform(batch)
```


      0%|          | 0/59 [00:00<?, ?it/s]





    torch.Size([64, 64])




```python
for i in range(1): #generated.shape[0]
    print('---------------------------')
…
